…
Feature extractor Fully connected layers model.add(Dense(128, activation='relu')) model.add(Dense(256, activation='relu')) model.add(Dense(128, activation='relu')) # Final layer model.add(Dense(6, activation='sigmoid')) model.compile(loss='BinaryCrossentropy', optimizer='Adam') model.summary() Model Summary me da los siguientes datos: Model: \"sequential\" _________________________________________________________________ Layer (type) Output Shape Param # ================================================================= embedding (Embedding) (None, None, 32) 6400032 bidirectional (Bidirectiona (None, 64) 16640 l) dense (Dense) (None, 128) 8320 dense_1 (Dense) (None, 256) 33024 dense_2 (Dense) (None, 128) 32896 dense_3 (Dense) (None, 6) 774 ================================================================= Total params: 6,491,686 Trainable params: 6,491,686 Non-trainable params: 0 y cuando quiero correr la prediccion: input_text = vectorizer('You freaking suck! I am going to hit you.') res = model.predict(input_text) me tira el siguiente error: WARNING:tensorflow:Model was constructed with shape (None, None) for input KerasTensor(typ
…
